models/lon/net_18030_bk.pkl (torch_old, 1153 bytes, 3 tensors)

fc_layers.0.weight f4 [20, 1]
-0.2349692 -0.3215931 -0.13890944 -0.38744572 0.17380452 0.5717921 -0.17039447 -0.39134336
-0.3330448 -0.38522094 -0.37585306 -0.34118548 -0.36955348 0.5594945 0.53402525 -0.14928088
-0.2940607 0.60338324 -0.23738906 -0.15397038
00000000: c49b 70be daa7 a4be 473e 0ebe 495f c6be
00000010: d0f9 313e f860 123f e37b 2ebe 285e c8be
00000020: d984 aabe ae3b c5be d06f c0be ddaf aebe
00000030: 1d36 bdbe 083b 0f3f e1b5 083f 16dd 18be
00000040: 208f 96be 5377 1a3f 1e16 73be 69aa 1dbe

fc_layers.0.bias f4 [20]
-0.296797 -0.17955369 -0.21829228 0.16853277 1.1106937 1.8080459 -0.21829401 0.14252171
-0.30401057 0.14293411 -0.379702 -0.30097875 0.14771096 1.7515217 1.753844 -0.21829292
-0.17955302 1.8528488 -0.11613346 -0.21829341
00000000: c7f5 97be ecdc 37be 0388 5fbe db93 2c3e
00000010: 362b 8e3f 0c6e e73f 7788 5fbe 36f1 113e
00000020: 46a7 9bbe 525d 123e 4d68 c2be e319 9abe
00000030: 8b41 173e dd31 e03f f67d e03f 2e88 5fbe
00000040: bfdc 37be 262a ed3f 61d7 edbd 4f88 5fbe

fc_layers.1.weight f4 [1, 20]
0.38516667 -0.14669144 -0.22514917 -0.19242498 0.23772137 0.5933369 -0.119230635 -0.03333678
0.23225951 -0.05139804 0.2551523 0.29072413 -0.13398203 0.6232718 0.56412226 -0.20471212
-0.17996994 0.5866646 0.1399646 -0.1782763
00000000: 9134 c53e 4836 16be 818d 66be 0e0b 45be
00000010: 3b6d 733e ede4 173f 312f f4bd 268c 08bd
00000020: 70d5 6d3e c086 52bd 52a3 823e cbd9 943e
00000030: 9632 09be be8e 1f3f 516a 103f 0ea0 51be
00000040: 0a4a 38be a72f 163f e152 0f3e 108e 36be
