models/lon/net_16836_bk.pkl (torch_old, 1153 bytes, 3 tensors)

fc_layers.0.weight f4 [20, 1]
0.016713416 -0.16766405 -0.18148804 -0.27526313 -0.1513348 -0.27806497 -0.3340759 -0.20999688
-0.028978623 0.060164552 -0.09024436 -0.054616455 -0.01305066 -0.07075806 -0.10899714 -0.15181367
-0.04141068 -0.08128102 -0.22352214 -0.24892554
00000000: 93ea 883c 20b0 2bbe 00d8 39be 4aef 8cbe
00000010: 83f7 1abe 885e 8ebe ff0b abbe 6c09 57be
00000020: 9464 edbc 1b6f 763d 09d2 b8bd 81b5 5fbd
00000030: 6fd2 55bc 9ae9 90bd e439 dfbd 0b75 1bbe
00000040: 3f9e 29bd aa76 a6bd fde2 64be 56e6 7ebe

fc_layers.0.bias f4 [20]
0.21619588 0.36545292 -0.16515458 -0.20025155 -0.16557713 -0.07812469 -0.16564654 -0.039016485
0.4447784 -0.015088618 -0.11928485 -0.0831235 -0.06470379 -0.15400219 -0.16545665 -0.11956438
0.44367653 -0.10218732 -0.2232635 -0.11129071
00000000: 7462 5d3e a51c bb3e 481e 29be be0e 4dbe
00000010: 0d8d 29be d6ff 9fbd 3f9f 29be c0cf 1fbd
00000020: ffb9 e33e 4036 77bc 9e4b f4bd a73c aabd
00000030: 6c83 84bd c0b2 1dbe 786d 29be 2bde f4bd
00000040: 9229 e33e 9647 d1bd 309f 64be 62ec e3bd

fc_layers.1.weight f4 [1, 20]
-0.048789773 -0.30366963 -0.24802193 0.28996912 -0.19186395 0.066957876 -0.20657425 0.18926358
-0.395148 0.058195148 0.06194021 0.06256305 0.0037582503 0.055950776 -0.22699487 0.15936165
-0.39665878 0.06932904 -0.16768157 0.020018142
00000000: c9d7 47bd 967a 9bbe 76f9 7dbe d576 943e
00000010: fc77 44be 3621 893d 3388 53be 50ce 413e
00000020: d750 cabe 095e 6e3d 05b5 7d3d 0e21 803d
00000030: fa4c 763b a42c 653d 5871 68be b32f 233e
00000040: dc16 cbbe 62fc 8d3d b8b4 2bbe 16fd a33c
