models/lon/net_13251_bk.pkl (torch_old, 1153 bytes, 3 tensors)

fc_layers.0.weight f4 [20, 1]
000000 bd 40 93 be bf b0 26 be cd c3 88 be 3a c4 c5 be
       -0.2876033 -0.16278361 -0.26711884 -0.3862627
000010 60 bd 0e bd f1 b2 14 be c9 f6 c7 be 71 6a 4d bd
       -0.03484857 -0.14521386 -0.3905547 -0.05015034
000020 f3 94 a3 be a6 e1 90 bc 18 0b 88 be 22 dc a4 be
       -0.31949577 -0.017685723 -0.26570964 -0.32199198
000030 57 19 60 be 7b bf 5b be ec 84 d6 be d7 f0 07 bd
       -0.21884666 -0.21459763 -0.41898286 -0.033188667
000040 dc d7 93 be df 7c 4f be 6a 30 b4 be dc 5e 1c be
       -0.28875625 -0.20262478 -0.35193187 -0.15270561

fc_layers.0.bias f4 [20]
000000 b0 f6 ae 3d 49 dc 24 be eb 8c d0 3c 90 2d b3 3d
       0.08543146 -0.16099657 0.02545782 0.08748925
000010 18 09 25 be d1 2d 25 be 76 84 b3 3d d0 64 1d bd
       -0.1611675 -0.16130759 0.08765499 -0.03842622
000020 a7 79 ce 3d ce 38 25 be b9 6b c5 3c 92 00 cf 3d
       0.10081797 -0.1613495 0.024099218 0.10107531
000030 bb 45 56 be e3 bd 9a be 87 d0 f6 be c9 68 cb bd
       -0.20925038 -0.30222997 -0.4820597 -0.099320956
000040 00 fd 55 be 4a e3 97 be 2b 7f a5 be ad a2 3f be
       -0.20897293 -0.29665595 -0.32323584 -0.187144

fc_layers.1.weight f4 [1, 20]
000000 8a 84 12 3c a0 b8 76 be 84 84 be 3b 87 e0 1a be
       0.008942733 -0.24093866 0.005814137 -0.15124713
000010 89 b4 67 be d4 74 34 be b1 e5 11 be 5b 76 d7 3d
       -0.22627462 -0.17622691 -0.14247777 0.105206214
000020 c4 2c f1 bd ec 69 e6 bd 05 57 99 bd d4 ef e2 bd
       -0.117761165 -0.11250672 -0.07487301 -0.110809
000030 66 ab 50 be d4 a5 88 bc c8 9e bf bb 8d 1c ae bc
       -0.20377883 -0.016680636 -0.0058477856 -0.021253848
000040 db 26 75 be f6 4e 8d 3a f3 04 4d 3e 3f 21 fe bd
       -0.23940603 0.0010780978 0.20021419 -0.12408685
