models/lon/net_17488_bk.pkl (torch_old, 1153 bytes, 3 tensors)

fc_layers.0.weight f4 [20, 1]
00000000: b4b8 b1bd 6cbf 86be 6b63 8d3e ecbb 0bbe
00000010: eef4 48be 822e 60be 7736 a9be 7f15 9b3e
00000020: be40 84be 1cc3 93be 433f 20be c01c a6bd
00000030: 1629 c6bd 68ba 77be cd0e 70be be49 8abe
00000040: fdb8 c5be 647a 283e 12ec a3bd 5c34 24be
-0.086778075 -0.26317918 0.27614912 -0.13645905 -0.19624683 -0.21892741 -0.33049366 0.30289838
-0.25830644 -0.28859794 -0.15649132 -0.081109524 -0.09675805 -0.24192202 -0.23443146 -0.27009386
-0.38617697 0.16452938 -0.08004011 -0.16035599

fc_layers.0.bias f4 [20]
00000000: 9e77 eabd d244 733d beb9 863e 01f0 89be
00000010: 41f8 89be 04a8 7a3e 50df 90be 4193 243e
00000020: a5f3 e83d 9054 543d 09f5 89be 6d18 803d
00000030: 6ef3 89be 51e0 a6be 4bf8 f03d 4310 e63d
00000040: 57f7 79be 9adc 2b3f 0560 b13e a4f8 89be
-0.114485964 0.059391804 0.26313585 -0.2694092 -0.26947215 0.24478155 -0.28295374 0.16071798
0.113745965 0.051838458 -0.2694476 0.06254659 -0.26943535 -0.32593015 0.11766108 0.112335704
-0.24410759 0.67133486 0.3464357 -0.2694751

fc_layers.1.weight f4 [1, 20]
00000000: 1eaa c43e 8a16 f6bc 0cb4 bf3e 4721 b2be
00000010: 548a 7abe 3644 67be b363 883e e2f3 913e
00000020: adfd 2cbe 6a9c 10bd 1aec a6be fb17 313d
00000030: f05c acbe 0828 b73e 3bc1 563e 5d04 d1bd
00000040: eac3 4dbe bab6 13bf f3b2 85be 0b8b 55be
0.3841104 -0.030040044 0.37442052 -0.34791014 -0.2446683 -0.22584614 0.26638564 0.2850638
-0.16893645 -0.035305418 -0.32602006 0.04323576 -0.33664656 0.3577273 0.20972149 -0.1020591
-0.20094267 -0.57700694 -0.2611309 -0.20853822
