models/lon/net_5456_bk.pkl (torch_old, 1153 bytes, 3 tensors)

fc_layers.0.weight f4 [20, 1]
-0.36854106 0.5197956 0.58295834 -0.39324304 -0.2672531 -0.38569295 -0.26264945 -0.09027424
-0.3164077 0.44617376 -0.027854253 0.41429913 -0.054452587 0.1858519 -0.26129526 -0.37994888
0.44256768 -0.18866219 -0.34909046 0.39925486
00000000: 6ab1 bcbe 5311 053f c23c 153f 2757 c9be
00000010: 66d5 88be 8c79 c5be fd79 86be b3e1 b8bd
00000020: 3100 a2be e370 e43e 9a2e e4bc 041f d43e
00000030: ad09 5fbd f64f 3e3e 7ec8 85be a988 c2be
00000040: 3b98 e23e a930 41be fcbb b2be 226b cc3e

fc_layers.0.bias f4 [20]
0.024616169 1.8224332 1.8527128 0.00570281 -0.20025165 0.15091388 -0.22743538 -0.28845727
1.0388875 1.7832038 -0.2884554 1.7207738 -0.28836238 1.2458391 -0.20025165 0.020086545
1.780298 -0.28845638 -0.40578294 1.6894599
00000000: d9a7 c93c 7e45 e93f b125 ed3f a3de ba3b
00000010: c50e 4dbe 2b89 1a3e d2e4 68be acb0 93be
00000020: 44fa 843f 0640 e43f 6db0 93be 5142 dc3f
00000030: 3ca4 93be a877 9f3f c50e 4dbe 8a8c a43c
00000040: cee0 e33f 8eb0 93be c8c2 cfbe 3940 d83f

fc_layers.1.weight f4 [1, 20]
-0.07875048 0.5305107 0.60216755 0.03899715 0.1423126 -0.16461548 0.28534853 -0.22583182
-0.9418003 0.39165312 -0.31632122 0.4386781 -0.3859269 0.21833922 0.16107753 -0.09998909
0.3928143 -0.28631565 0.2845406 0.43995786
00000000: ef47 a1bd 8dcf 073f a727 1a3f 7abb 1f3d
00000010: 65ba 113e f690 28be 3419 923e 7540 67be
00000020: d319 71bf c286 c83e dbf4 a1be 6a9a e03e
00000030: 3698 c5be 5194 5f3e 82f1 243e 14c7 ccbd
00000040: f51e c93e f797 92be 4eaf 913e 2842 e13e
