models/lat/net_7832_bk.pkl (torch_old, 1153 bytes, 3 tensors)

fc_layers.0.weight f4 [20, 1]
00000000: 5bd5 10be 7c5a 9ebe 592b b2be 2b5f cabe
00000010: 05ed 0dbe 56b4 6fbd f1f0 bfba 75ab a6be
00000020: 2f6d 3fbe d0aa cbbe e482 5abe cfde 90be
00000030: cdc1 4fbe 1d49 dbbd 6f98 60be c11f debd
00000040: 8b02 afbe 44ba e13c 849c e1bd ae2a 96be
-0.14143889 -0.3092841 -0.34798697 -0.39525732 -0.13859947 -0.05852159 -0.001464395 -0.32552686
-0.18693994 -0.39778757 -0.21338993 -0.2829499 -0.20288773 -0.107073046 -0.21933149 -0.108459
-0.34181628 0.027554639 -0.11016181 -0.29329437

fc_layers.0.bias f4 [20]
00000000: 75cc 693e f9b3 00be fd7e 58be 99d0 fbbe
00000010: 00ac 65be 0528 9abd 595f 3cbd 0dc1 58be
00000020: a5cc 693e 12b6 58be 8b12 99be 96c9 31be
00000030: 225d 59be 379c 693e 7916 50be b3b3 46be
00000040: 31c1 58be cef5 7cbc 27aa 693e d090 a3be
0.228319 -0.12568654 -0.21142192 -0.49182585 -0.22428894 -0.07527164 -0.045989368 -0.21167393
0.22831972 -0.21163204 -0.2989696 -0.17362055 -0.21226934 0.22813497 -0.20321073 -0.19404487
-0.21167447 -0.015439464 0.22818814 -0.3194642

fc_layers.1.weight f4 [1, 20]
00000000: 94c0 9ebe 839b 803d 3055 98be ce53 26be
00000010: 1d8e 36bd e7dc 9ebd c8a8 323a fd89 34be
00000020: 07aa 9fbe 9de2 82be 95cc acbd b9f8 63be
00000030: c484 3a3e 486e 39be 26c4 58be eaf6 e03d
00000040: 040e 32be ba81 7d3b db64 47be 5ac4 59be
-0.310063 0.062796615 -0.29752493 -0.16242906 -0.044569124 -0.077569775 0.00068153115 -0.17630763
-0.31184408 -0.25563517 -0.084374584 -0.22262849 0.18214709 -0.18108475 -0.21168575 0.10984595
-0.17388159 0.003868206 -0.19472067 -0.21266308
