models/lat/net_17003_bk.pkl (torch_old, 1153 bytes, 3 tensors)

fc_layers.0.weight f4 [20, 1]
-0.19098827 -0.27757132 -0.13217217 -0.084509455 0.086962566 -0.37600937 -0.0040215473 -0.27119258
-0.2918464 -0.29385528 -0.19775318 -0.0949573 -0.3249075 -0.076260924 -0.199812 -0.16976772
-0.07606743 -0.28165856 -0.27277583 -0.27879637
00000000: 6e92 43be d41d 8ebe 2458 07be 4b13 adbd
00000010: 6e19 b23d 4d84 c0be 2fc7 83bb c1d9 8abe
00000020: e46c 95be 3374 96be cf7f 4abe f978 c2bd
00000030: 475a a6be b02e 9cbd 849b 4cbe 97d7 2dbe
00000040: 3ec9 9bbd 8d35 90be 46a9 8bbe 66be 8ebe

fc_layers.0.bias f4 [20]
-0.2821351 0.09973245 -0.15956089 -0.033920642 -0.060579278 0.36241913 0.00019347832 -0.22938026
-0.20025164 -0.36550322 -0.28209203 -0.13604599 0.03576962 -0.07626965 -0.28201398 -0.20469667
-0.28214273 -0.1708657 -0.3590811 0.13118283
00000000: 0374 90be 8740 cc3d ee63 23be 5ff0 0abd
00000010: fa21 78bd 008f b93e 71e0 4a39 a9e2 6abe
00000020: c40e 4dbe 3d23 bbbe 5e6e 90be a44f 0bbe
00000030: 2a83 123d 4333 9cbd 2364 90be 019c 51be
00000040: 0375 90be 6bf7 2ebe 7ad9 b7be cb54 063e

fc_layers.1.weight f4 [1, 20]
-0.2969814 -0.01149903 0.07306063 0.14616866 0.07887669 0.32829428 -0.01190468 -0.22359638
0.1930432 -0.048692927 -0.34134957 -0.0559844 0.051811278 0.112249754 -0.36116317 -0.07842195
-0.27666807 -0.1478802 -0.06741149 -0.14907463
00000000: f20d 98be 6d66 3cbc d0a0 953d 3dad 153e
00000010: 1a8a a13d 3016 a83e d90b 43bc 73f6 64be
00000020: 1ead 453e 3c72 47bd 5fc5 aebe e64f 65bd
00000030: 1038 543d 33e3 e53d 61ea b8be b09b a0bd
00000040: 70a7 8dbe e86d 17be 090f 8abd 05a7 18be
