models/lat/net_12187_bk.pkl (torch_old, 1153 bytes, 3 tensors)

fc_layers.0.weight f4 [20, 1]
00000000: 58b1 27be 546a 30be 27b9 0cbe 4d83 5fbe
00000010: 4936 20be a6a5 51be f1aa 99be 6291 e9be
00000020: 958e 84be 137c 8fbe 668c 29be 51d6 acbe
00000030: efac 17be b8e9 9abe fd36 d0bd 29c7 73be
00000040: 1fb5 eebe 57e2 febd 9201 36be c7bf eabe
-0.16376245 -0.17228061 -0.13742505 -0.21827431 -0.15645708 -0.20473346 -0.3001323 -0.4561873
-0.2589003 -0.2802435 -0.16557464 -0.3375726 -0.14812063 -0.30256438 -0.10166738 -0.23806442
-0.4662256 -0.12445515 -0.17774037 -0.4584944

fc_layers.0.bias f4 [20]
00000000: 3368 38be 2687 5dbe 204c f5bd e230 743f
00000010: b3be 99be 2489 20be 3b3d 2cbe 59d4 9bbe
00000020: 8bef 01be a23c 2cbe 4037 d2bd fdfd c0be
00000030: 8b11 003f 271a 5fbe dd07 28be bfac 40be
00000040: 37d5 9bbe 12c0 99be 0913 003f 01d6 9bbe
-0.18008499 -0.21633586 -0.1197741 0.9538709 -0.30028304 -0.15677315 -0.16820233 -0.30435446
-0.12689035 -0.16820005 -0.10264444 -0.37693778 0.5002677 -0.2178732 -0.1640925 -0.18815897
-0.30436108 -0.3002935 0.50029045 -0.3043671

fc_layers.1.weight f4 [1, 20]
00000000: 9d6d 43bd bf2d 873d 18a3 0c3e f0c6 54bf
00000010: 0c9b b3be 7c5e 513e 0d91 0cbe 99ba b1be
00000020: 6d27 5c3e 05eb 15be 57a3 3abe 7c51 423e
00000030: 257b dcbe 3056 21be b6bd 653d 05c5 0abe
00000040: beac a2be 78b4 a0be fd46 f1be 1b36 77be
-0.047711957 0.06600522 0.1373409 -0.83116055 -0.3507923 0.20446199 -0.13727207 -0.34712675
0.21499415 -0.14640434 -0.18226372 0.18976396 -0.43062702 -0.15755534 0.056089126 -0.1355172
-0.31772417 -0.31387687 -0.47124472 -0.24141733
