models/lat/net_14832_bk.pkl (torch_old, 1153 bytes, 3 tensors)

fc_layers.0.weight f4 [20, 1]
00000000: 70e0 b9be 758b b1be 24ce 3abe ad9d af3e
00000010: 16b0 5d3e 7c82 7dbe c7a4 91be 0d8f acbe
00000020: d536 e9bd f2a0 c5bd ecdf c0be af63 073e
00000030: d58a c3be e9fb dd3e 1cc5 91be e80d 8fbe
00000040: f476 963e 1ee4 24be e1a1 95be 91c0 183e
-0.36304045 -0.3467671 -0.18242699 0.34299985 0.21649203 -0.24756807 -0.28446028 -0.3370289
-0.113874115 -0.096498385 -0.3767084 0.1322162 -0.38191858 0.43356255 -0.28470695 -0.27940297
0.2938763 -0.16102645 -0.29225066 0.14917208

fc_layers.0.bias f4 [20]
00000000: 836b 2c3d de1e 3d3d a42f 22be d093 bd3f
00000010: 9a21 a53f 7966 a0be 975a a0be 1866 4cbe
00000020: cb4d a6bc 1553 2bbe 5689 b73c 31e7 7e3f
00000030: fe66 003e 8e96 c53f a2cc b2be b30e 4dbe
00000040: 5ea5 b23f 3e53 2bbe c50c 4dbe 04cd 8f3f
0.04209472 0.046172015 -0.15838486 1.4810734 1.2900879 -0.3132818 -0.31319115 -0.1996082
-0.020300766 -0.16730912 0.022404354 0.9957152 0.12539288 1.5436571 -0.34921747 -0.20025139
1.3956716 -0.16730973 -0.20024402 1.1234441

fc_layers.1.weight f4 [1, 20]
00000000: 47c3 d13c d931 45bd 0447 ba3e 9235 a43e
00000010: 9d0b 5c3e 86b0 b93e 14be 973e 6e7c 3c3e
00000020: 9343 b73d 520a 1fbe 7c7e 1ebd 0643 0b3e
00000030: 61f2 933d 97a0 ce3e 567a 923e 7e41 5c3e
00000040: f494 a03e 0a09 1abe 3428 073e 1e7e 193e
0.02560581 -0.04814324 0.36382306 0.3207212 0.21488805 0.3626749 0.29637206 0.18406841
0.08948436 -0.1553128 -0.038694844 0.13599786 0.072239645 0.40356895 0.2860896 0.21509358
0.31363642 -0.1504251 0.1319893 0.14989516
