models/lat/net_2142_bk.pkl (torch_old, 1153 bytes, 3 tensors)

fc_layers.0.weight f4 [20, 1]
00000000: 770a 20be a32f 92be 3fbc 3e3c 1f51 9bbe
00000010: 2816 0abe 0812 26be 3fa8 ffbd bfbb 99be
00000020: 8678 19be 7f92 a0bc d503 97be 22f8 3c3d
00000030: 191d abbe 9cb4 19be 3967 e3bd b214 1b3d
00000040: 8a63 d7bc 4d17 c5bd 9202 783c a5ef cfbd
-0.15628992 -0.2855197 0.011641561 -0.30335328 -0.13485014 -0.16217816 -0.12483262 -0.3002605
-0.14987382 -0.019601105 -0.2949511 0.046135075 -0.33420637 -0.15010303 -0.111036725 0.037861533
-0.026292581 -0.09623585 0.015137332 -0.101531304

fc_layers.0.bias f4 [20]
00000000: f74e b03e 5341 27be f823 0f3e c0a4 83be
00000010: 8ab7 c2bd b146 b03e 608e ea3c d673 9cbe
00000020: cdd0 13be cbdb 50bd c50e 4dbe eb52 8a3c
00000030: 40db 12be 883e b03e cc4d b03e eafe 50bd
00000040: b645 83bd b919 c53d 47ea 89bd ac76 65bd
0.34435245 -0.16333513 0.13978565 -0.25711632 -0.095076635 0.34428933 0.028632343 -0.30557126
-0.1443512 -0.05099086 -0.20025165 0.016885241 -0.1434145 0.34422708 0.34434354 -0.051024355
-0.06409781 0.09624047 -0.06734138 -0.056021377

fc_layers.1.weight f4 [1, 20]
00000000: 1bea c3be baea e2bd 755d 5b3c 1817 943e
00000010: 8700 333e 45c4 9bbe 3a56 d93d 8017 eb3d
00000020: 7c3f e0bd 0889 773c a8ed 473e c7a8 303d
00000030: 923b 77be dcc2 90be d4df b8be 08d1 f23c
00000040: 3b9d d93c 228c e7bd bcef ffbb 41a7 d9bd
-0.38264546 -0.11079927 0.013388981 0.2892387 0.1748067 -0.3042318 0.106121495 0.11479092
-0.10949609 0.015108354 0.19524252 0.04312971 -0.24143818 -0.28273666 -0.36108267 0.02964069
0.026564231 -0.11306025 -0.007810561 -0.10627604
